Lunar-Landing/checkpoint.pth (torch, 22566 bytes, 6 tensors)

fc1.weight f4 [64, 8]
000000 05 e4 26 3f b1 db 3c 3f 99 b8 99 3f 55 3d 91 3e
       0.6519168 0.7377272 1.200946 0.28367105
000010 88 9d 23 bf e4 0a ba be 3c b7 78 bf ae 82 5f be
       -0.6391225 -0.36336434 -0.97154593 -0.21827194
000020 83 17 09 3f 2b ec 81 be dc 1b 53 3f fc 32 f8 bd
       0.535515 -0.25375494 0.82464385 -0.121190995
000030 c9 7d cf 3e 51 f7 16 3f 3f 6c dc 3e e6 eb 22 3e
       0.40525654 0.58971125 0.43051335 0.159103
000040 28 de 85 3e 84 b4 6a 3e 0b dc ef 3d 7c 29 85 3c
       0.26146054 0.22920424 0.11711892 0.016255133
000050 92 97 fa bd 14 a2 58 be 8b 7f 3d 3e 21 23 d5 3e
       -0.12235941 -0.21155578 0.18505685 0.41628364
000060 4b c2 a3 bf 70 00 06 bf a3 7a 5c bf 46 a7 8f 3e
       -1.2793669 -0.5234442 -0.8612463 0.28057307
000070 e3 6b 50 bd 56 1a 88 be 86 0a 15 3f a2 ab be bd
       -0.05088414 -0.26582593 0.5821918 -0.0931008
000080 61 77 52 3d 64 be d8 bd 3c 7a b2 3a 8f eb 1a bd
       0.05138338 -0.10583189 0.0013616751 -0.037822302
000090 cd 43 ec 3e ba 8c 51 3f 0b 23 0a 3f 25 f1 29 be
       0.46145478 0.81855357 0.5395972 -0.16595896
0000a0 29 ba 1d 3f 9c ce a8 be a8 7d 14 be ee 50 eb 3f
       0.6161218 -0.3297013 -0.14501059 1.8384073
0000b0 ac a1 09 bf f9 b2 44 bd 9f 7a 00 3f 65 9c b2 3d
       -0.53762317 -0.048022244 0.50187105 0.08721236
0000c0 a6 50 c1 be 6b 2c 2c bf b7 11 a1 bf 42 26 80 bf
       -0.37756842 -0.67255276 -1.2583531 -1.0011675
0000d0 8f 25 26 3f 3e 89 77 3e 94 02 48 3d 6a 34 b0 3e
       0.6490106 0.24173447 0.048830584 0.3441499
0000e0 a5 8f 7a bd d2 42 99 be e6 46 8f 3e 3c 4f d7 3f
       -0.061172146 -0.29933792 0.2798378 1.6821055
0000f0 2a 38 2c bf dd 7a f9 be f8 36 96 3e b3 ea 06 be
       -0.672732 -0.4872655 0.29338813 -0.13175468
000100 aa 3c 75 3e 0f 86 a2 3d 21 91 1c 3f 76 b9 09 be
       0.23948923 0.07935726 0.6115895 -0.13449654
000110 34 78 97 bf f9 3c 47 be cc be 08 3f 9b 51 ef 3d
       -1.1833558 -0.19456853 0.5341613 0.11685487
000120 48 1f f4 3c 6d 44 7a c0 df 64 89 bd 3b be 9e bf
       0.029800072 -3.9104264 -0.06708693 -1.2401804
000130 a5 c7 50 be 9b 06 c2 3d e5 3a 77 3d 95 19 88 3e
       -0.20388658 0.09473916 0.0603589 0.26582018
000140 13 54 66 bf bb 7c 72 bf 98 0e 07 3f 4c 7b 8b bf
       -0.8997204 -0.94721574 0.52756643 -1.0897002
000150 7a cd 31 3e 0f 64 a8 3d 08 99 f5 3e 38 7d 81 be
       0.1736354 0.0822221 0.47968316 -0.25290847
000160 01 75 ae be 8f 77 94 bd fb fd 07 bd 4b b5 10 bf
       -0.34073642 -0.072493665 -0.0332012 -0.5652663
000170 fb 15 9d 3e 04 c9 29 3f 03 73 dc 3e 9f 9a 48 bf
       0.30680832 0.6632235 0.43056497 -0.78360933
000180 eb f0 f5 3e 0d e6 9d be 1b 1b 48 be 03 63 a0 bf
       0.48035368 -0.30839577 -0.1954159 -1.2530216
000190 a8 30 35 bf f4 a2 cb 3e 6e 3a 32 3c 83 4a c0 bd
       -0.7077737 0.3977276 0.010878189 -0.09389212
0001a0 8f 8d 18 bf 38 d8 8c bd 69 e8 78 bf 80 30 58 bf
       -0.59591 -0.06877178 -0.9722963 -0.84449005
0001b0 a2 e0 7a 3d 39 35 cc be a7 a0 9d 3e 9b f7 2e be
       0.061249383 -0.39884356 0.3078663 -0.17086641
0001c0 1f b5 9c be a9 cb 08 bf bb 06 39 be 29 d7 2d bf
       -0.30606934 -0.5343576 -0.18068974 -0.67906433
0001d0 0d 83 8d be 68 8c ff be 6c a1 51 3d c6 8a cc be
       -0.27639046 -0.4991181 0.051179335 -0.39949626
0001e0 e8 b7 ed 3b 86 34 91 bd f2 0e 4b bf 13 02 eb be
       0.0072545893 -0.07090096 -0.7931968 -0.4590002
0001f0 85 39 d6 be 8c d0 80 bf 3c 03 94 3e ac c1 ba be
       -0.4184076 -1.0063643 0.28908718 -0.36475885
000200 96 71 9a bc 8d 39 18 bd c5 40 dc 3d 04 5a 15 bd
       -0.01885299 -0.03716426 0.10754541 -0.0364628
000210 1a 88 02 c0 21 02 c5 3d 6a a1 1f 3e cd 89 0e bf
       -2.039557 0.09619547 0.15588918 -0.5567902
000220 af 07 a8 be cc 31 61 bf b0 dd a8 3d d1 c7 61 bf
       -0.32818362 -0.8796661 0.082454085 -0.8819552
000230 55 f4 db be ef f8 c8 be 7e 1e 0e 3f c9 5d d2 be
       -0.42959848 -0.3925242 0.5551528 -0.41087177
000240 3e 0f e5 3b a7 27 04 3a 8f 2a ac 3e 5d 40 93 bc
       0.0069903424 0.0005041309 0.3362622 -0.017975027
000250 af 1c 05 40 5a 60 83 be e2 aa 13 3e cc d7 3c 3e
       2.0798757 -0.25659448 0.14420655 0.18441695
000260 6a 63 52 3e eb 01 8b bf c3 e1 2a 3f 69 ce 93 bf
       0.20545736 -1.085996 0.66750735 -1.1547366
000270 9d f3 db 3e 01 6f a5 3e 87 d1 75 3e 25 8e 81 bc
       0.429593 0.32311252 0.2400571 -0.01581485
000280 e5 b3 b3 be 06 fc aa be 48 4a c1 be 4c 38 67 bf
       -0.35098186 -0.33395404 -0.37751985 -0.9032028
000290 31 2a 5f 3f b5 f0 63 3e 03 8a 75 be 14 a7 5e 3e
       0.87173754 0.22259791 -0.23978429 0.21743423
0002a0 85 af 38 3e 89 13 b6 bd b2 e0 74 be 78 f1 f4 be
       0.18035705 -0.08890445 -0.2391384 -0.47840476
0002b0 b9 ec 03 40 c6 ad 12 3e ed 24 c0 3d 6a 6e ca 3d
       2.0613234 0.14324102 0.09382043 0.09884341
0002c0 4c 7c c5 be c3 43 bf 3e 82 01 f5 3d 6d 42 1e c0
       -0.38571393 0.37356386 0.11963178 -2.4728043
0002d0 b2 00 83 3e 0d 27 6e 3e 22 82 a6 bc 8e 1f f7 3d
       0.25586468 0.23257084 -0.020325724 0.120665655
0002e0 29 20 19 bf 2c a5 db bd 62 6f a7 3e d8 72 32 be
       -0.598147 -0.107248634 0.32702166 -0.17426622
0002f0 9d b8 a7 bf a3 d3 ea be 14 58 02 3f 0f 19 83 be
       -1.3103215 -0.4586459 0.50915647 -0.25605056
000300 12 b2 0e 3f 90 1d b6 bc 74 fe 9e 3e de 22 a3 be
       0.55740464 -0.022230893 0.31053507 -0.3186254
000310 1e f5 0d bf 7c 6c 11 be ac df 6c 3e 23 fa 36 3e
       -0.55452144 -0.1420154 0.23132199 0.17868857
000320 f4 d8 40 bf 32 24 a2 bd 87 46 9a 3f 04 fd 3b 3f
       -0.75331044 -0.0791706 1.2052773 0.73432946
000330 f4 f2 ac 3e a5 4d aa ba d2 1e e7 3e a0 38 7a be
       0.3377911 -0.001299311 0.45140702 -0.24435663
000340 5d b9 09 3e ed 3b f9 bd 46 44 41 3f cb 72 bd 3e
       0.13449617 -0.12169633 0.754948 0.37001643
000350 1f f0 f3 be bc 18 91 3d 17 10 92 be d6 cc 1f 3f
       -0.47644135 0.07084796 -0.285279 0.6242193
000360 92 e7 c9 be bb be 44 c0 54 2d ba 3e 44 14 fa bf
       -0.39434487 -3.0741413 0.36362708 -1.9537435
000370 0d 7a cc 3e 38 70 9a 3e a3 82 30 3e 54 26 1c 3e
       0.39936867 0.3016374 0.17237334 0.15248996
000380 55 66 62 be 1c b2 fa 3d 55 ff e4 bd b1 d3 43 bc
       -0.22109349 0.12241003 -0.11181513 -0.011952327
000390 06 fc df 3e a7 d0 d8 be 31 00 85 bf 3d 32 02 3f
       0.43746966 -0.4234669 -1.0390683 0.5085791
0003a0 7a a9 9d bd cc e1 c0 3c 2c 15 02 40 ec 11 00 bf
       -0.07698341 0.023545168 2.0325422 -0.50027347
0003b0 1e 5b 75 3e 25 fb 58 3d 61 f5 bb 3d 15 db 5a bf
       0.2396054 0.052973885 0.09177662 -0.8549054
0003c0 2f 08 73 3e af 1c 2f bf 06 ce 97 3e f5 21 80 bf
       0.2373359 -0.6840314 0.2964937 -1.0010363
0003d0 3f 86 1f bf 2c 0b 3f bc 08 44 c5 be 32 d9 c3 bd
       -0.6231422 -0.011660378 -0.38528466 -0.09562911
0003e0 eb e0 5c 3e 77 af db 3e 55 24 31 bf 38 1f 26 bf
       0.21570174 0.42907307 -0.69196063 -0.64891386
0003f0 9d 39 60 3d d8 d9 05 bf 8e 11 25 be 1e 7b 6f be
       0.054742444 -0.5228553 -0.16119978 -0.23386809

fc1.bias f4 [64]
000000 ce 60 cb 3e da ab 3b bd 6c a0 7c be 85 ad ff be
       0.39722294 -0.045818187 -0.24670571 -0.49937072
000010 94 f2 d7 3e f3 c7 bc be 08 c2 67 bd 83 8d 1c be
       0.4217726 -0.368713 -0.056581527 -0.15288357
000020 ff 04 67 be 4c b5 15 3e 2a b1 55 bd 70 b1 9e 3e
       -0.225605 0.1461994 -0.05217091 0.3099475
000030 d4 7a aa 3e 13 48 06 bf cc 17 64 3e be 3b a8 3d
       0.33296835 -0.52453727 0.22274703 0.0821452
000040 ed b1 90 3c 95 93 81 3e ec 1c 49 bc fe 95 b7 bd
       0.017662967 0.2530791 -0.012274962 -0.089641556
000050 21 79 d6 be 14 fb af 39 45 db a7 3e dd 05 eb 3c
       -0.4188929 0.0003356567 0.32784477 0.02868932
000060 41 4f 0d bf 7a 76 22 3e 6e 53 52 be 5b cf 55 3e
       -0.55199057 0.15865508 -0.20539638 0.20879881
000070 47 fe 07 be 0f 1b 14 3b 73 9f d4 be 0a 1c 87 3e
       -0.13280593 0.0022599136 -0.415279 0.2638858
000080 bd 57 dd 3e 1b 6f 66 3c 8d 4b d5 bc 13 6d 24 3e
       0.43231001 0.014064576 -0.026037002 0.16057234
000090 f3 f1 21 3e 34 0f 8f be 35 0c 29 be 25 37 b8 3e
       0.15814953 -0.27941287 -0.16508563 0.35979572
0000a0 ad 87 8d bd 96 ff b1 3e 3b 67 8b 3e 6c a4 a4 be
       -0.06910644 0.3476531 0.27227196 -0.32156694
0000b0 1a bf 0b 3d b2 26 a0 3e d5 be d2 3e 9a 58 2f 3e
       0.034117796 0.31279522 0.41161218 0.17123643
0000c0 1a 46 c0 3e 41 1f 02 3e 76 91 1f 3e a1 1e 03 bf
       0.37553483 0.12707235 0.15582833 -0.5121861
0000d0 14 88 b5 be f5 d8 c8 be d9 00 fc bd 08 25 31 3c
       -0.35455382 -0.39228025 -0.12304849 0.010812052
0000e0 6a 41 e0 be 09 ae 87 be 98 79 88 be 50 97 a4 be
       -0.43799907 -0.26499966 -0.2665527 -0.32146692
0000f0 a6 19 5c be af 47 ec 3e dc 97 57 3e 7b ee e9 bb
       -0.21494159 0.4614844 0.21054024 -0.007139025

fc2.weight f4 [64, 64]
000000 e8 f7 3c bd 78 28 54 3d 1c 9b 7c bd 30 38 4c bd
       -0.04613486 0.051796407 -0.06167136 -0.049858272
000010 54 4a 44 3d 82 4e f2 bd 43 af c6 bc 27 a6 e3 3d
       0.047922447 -0.118313804 -0.024253493 0.111156754
000020 bd 3b ad 3b ed 61 ce 39 84 b9 b7 bd 1d 26 f0 bc
       0.0052866624 0.00039364342 -0.08970931 -0.029315049
000030 d1 42 fb bc 67 12 c5 3c 79 32 14 3d 02 c0 c2 3d
       -0.030671509 0.024056626 0.036180947 0.09509279
000040 df 69 f7 bd 78 6e 6a bc b2 f9 90 bd 74 ce 04 be
       -0.1208074 -0.014308564 -0.070788756 -0.1296938
000050 f2 f4 c3 bc 10 30 0b be 05 d9 64 3d b2 dd 64 3a
       -0.02392051 -0.13592553 0.05587103 0.0008730545
000060 b9 84 97 bd fb 77 6c 3d 1a 49 f2 bd 12 74 a1 bd
       -0.07398362 0.05773161 -0.11830349 -0.07883467
000070 90 7e c7 bc f9 3c f8 bd 94 c9 a2 bd c9 58 2e bd
       -0.024352342 -0.121210046 -0.07948604 -0.04256514
000080 70 88 9c 3d 00 e6 cb 3d ec 2b 79 3d ae 9d d6 bd
       0.07643211 0.099559784 0.060832903 -0.10479294
000090 95 0a cc bd d2 68 df 3d f2 78 21 3d 14 b9 ae bc
       -0.09962956 0.10908665 0.039421983 -0.021328487
0000a0 80 94 8a 3c 30 ac eb bd 1b 46 87 bd 7b 3e ee 3d
       0.016916513 -0.115074515 -0.066051684 0.11633011
0000b0 4f 70 1e bd dd 45 d1 bc 2c 74 eb bd 0e e2 d4 bd
       -0.038681325 -0.025546009 -0.114967674 -0.10394679
0000c0 cb 93 10 bd 94 58 dd bd c0 f8 7d bc 20 9f 90 3c
       -0.035297196 -0.108079106 -0.015501201 0.017654002
0000d0 d4 69 fa bd a9 17 67 3c f0 44 a9 bd fc 85 7f bd
       -0.12227216 0.014104762 -0.08265102 -0.062383637
0000e0 88 71 b1 3c dc fc bd 3d c7 66 4a bd 1c 36 52 bd
       0.021660581 0.09276745 -0.049414422 -0.051321134
0000f0 1d 52 fd bd 51 3e b7 bd e0 4e 0f be dc a5 5f bd
       -0.123691775 -0.08947433 -0.13994932 -0.054601535
000100 5b af 58 3f f6 74 17 3f ed 60 9c 3e 19 e4 f8 3e
       0.8464257 0.59162843 0.30542699 0.48611525
000110 7d 1c cd 3e 28 fe 37 3e b3 21 16 3e 64 11 a5 be
       0.40060797 0.17968047 0.14661293 -0.3223983
000120 03 d6 87 3e 18 02 8e bf 1d c6 b5 3d a5 c2 68 3e
       0.26530465 -1.1094389 0.08875678 0.22730501
000130 ad a4 1d 3d ad 21 10 3f fb 31 55 3e d2 f3 83 3e
       0.038487125 0.56301385 0.20819847 0.25771958
000140 c6 66 44 bf 65 43 43 be 6b 5c 5c bf 02 5f a1 3e
       -0.7671932 -0.19068678 -0.8607852 0.31517798
000150 cd 54 98 3e 18 79 9e be 9d 45 81 3d b9 a8 ab be
       0.29752198 -0.30951762 0.06312106 -0.33527163
000160 73 22 9e 3e 55 0f 83 be a0 bf e8 3c 37 42 de be
       0.30885658 -0.25597635 0.028411686 -0.43409893
000170 62 ca e2 3e df b9 62 bf 75 73 1d 3f f3 08 94 3e
       0.4429503 -0.88564867 0.615043 0.28913078
000180 65 3f 0e be 48 bc 99 3c ed e8 f9 be e7 40 48 bf
       -0.1389137 0.018766537 -0.4881052 -0.78224033
000190 65 e7 a1 3c 50 59 31 3f 48 c1 89 3e e4 70 63 3e
       0.019763658 0.69276905 0.26905274 0.22211033
0001a0 07 51 87 bd 9f 53 bc 3d 16 8d 70 be 54 25 dc bd
       -0.066072516 0.09195637 -0.2349132 -0.10749307
0001b0 70 15 6a be 63 89 3c 3e 18 ad 00 bf 4e ef 5c 3d
       -0.2285974 0.18411784 -0.5026412 0.053939156
0001c0 8b 86 a2 bd 40 ad a8 3e 0f 6c 79 3e d1 6a 65 3f
       -0.07935818 0.3294468 0.24357627 0.89616114
0001d0 8a e8 0b 3f fc 63 73 3f 11 b5 6e 3e 6b c3 d4 bf
       0.546517 0.9507444 0.23311259 -1.6622137
0001e0 bc 5e bb 3e 3f 8e 18 be 88 16 ea 3e 1a 32 d2 3e
       0.36595714 -0.14898013 0.45720315 0.4105385
0001f0 5c a9 93 3e 9e 70 19 bc ee c5 3d 3e 88 9c 2a bf
       0.28840148 -0.009365229 0.18532535 -0.666451
000200 ef 9a ea bd 8d 32 32 be 8d 9f ac be 50 8e 1c bf
       -0.114553325 -0.17402096 -0.33715478 -0.6115465
000210 88 49 92 bf 57 f3 01 be a5 d3 e8 be a7 29 f6 3e
       -1.142869 -0.12690483 -0.45473972 0.48078653
000220 9d 8a 00 bf cd 33 d5 bc b7 3c 9d bf 2c f6 7a bf
       -0.5021151 -0.026025677 -1.2284154 -0.9803188
000230 66 40 3d 3f ee ad 32 bf 8b 2a b5 be b8 86 d4 3d
       0.7392639 -0.69796646 -0.3538402 0.10377258
000240 50 65 83 3f a7 23 4b bf b0 1a 25 3f f9 fb d6 be
       1.0265293 -0.79351276 0.64493847 -0.41989115
000250 13 30 e5 3c 6f 73 04 3f bd ff d9 3d c9 e2 29 3f
       0.027977025 0.5173864 0.10644481 0.6636167
000260 4f 05 0a bf 75 bd 47 bd bb cd 5d bf a5 fb 47 bf
       -0.5391435 -0.048764665 -0.86642045 -0.78118354
000270 d6 38 a9 bf 51 76 bb 3f bd 83 a6 3d 95 e0 1f 3f
       -1.322047 1.4645482 0.08130596 0.6245206
000280 83 9b 52 bf c0 d9 9e 3e 96 72 8e 3f 96 97 8b bf
       -0.8226854 0.31025505 1.1128719 -1.0905635
000290 27 76 66 bc 22 09 b3 bf d8 d7 ca 3b 92 a9 f3 be
       -0.014066256 -1.3987162 0.0061902814 -0.4759031
0002a0 e2 35 20 bf e8 88 28 bf 3c 87 47 3f e8 ae 67 3e
       -0.6258222 -0.658339 0.77940726 0.22625315
0002b0 9d ef 80 3d 7d 78 c7 be ab bf 09 3e 17 8e 95 3e
       0.062957026 -0.38959113 0.13452022 0.29209968
0002c0 68 9e cd 3e c3 91 fd 3d 14 1a da bf c8 03 39 bf
       0.40159917 0.123813175 -1.7039208 -0.72271395
0002d0 de 8c 07 bf 74 db 0c be 0e d8 1c be 62 e5 e9 3f
       -0.5294932 -0.1375559 -0.15316793 1.8273127
0002e0 a3 a9 21 bd 18 f8 4b 3f 98 8e e0 3c 88 33 c8 bf
       -0.03946842 0.79675436 0.027411744 -1.5640726
0002f0 fd d4 3b bf 0c 83 2f 3f db 8c c5 3e 80 c5 8e 3f
       -0.7337187 0.68559337 0.38584027 1.1154022
000300 2c bb 81 3f 96 9b 96 3e 3a 47 cb 3e e0 ac b2 3f
       1.0135245 0.29415578 0.3970278 1.3959007
000310 9c bb b7 3e ef 6e 17 3d ac df c4 3e 4f 33 07 3d
       0.35885322 0.03697103 0.38451898 0.033007916
000320 96 fc 51 3f 88 89 6b bf d9 bc 83 3e 29 3b c5 3e
       0.8202604 -0.9200673 0.25730017 0.38521698
000330 d2 7f e8 be 1c 47 8c 3f 7e 22 08 3f e1 54 9c 3e
       -0.4541002 1.0959201 0.5317763 0.30533507
000340 08 5a b1 bf 25 3b 82 3e 53 cc 26 bf ce 37 e1 3d
       -1.38556 0.2543575 -0.65155524 0.10996972
000350 6d 19 cd 3e 13 09 3c 3e c8 72 0d 3f f9 1d 55 bf
       0.4005846 0.18362837 0.5525327 -0.8324886
000360 8a 3d 22 3f 25 9a 86 bf 6d f0 0b 3e 10 aa 7d be
       0.6337515 -1.0515791 0.13665934 -0.24771905
000370 6a 5e 2e 3e ed 63 e3 bf 73 1a e6 3e 75 bb 9f 3e
       0.17028204 -1.776487 0.44942054 0.31197706
000380 cf b7 ad be 5b 62 f5 bd cd bd 98 bf 24 18 fa be
       -0.33929297 -0.119816504 -1.1932923 -0.48846543
000390 31 23 59 be 86 af 7b 3f 25 ab 12 3f 89 1e fe 3e
       -0.2120483 0.983147 0.57292396 0.4963267
0003a0 b8 6a 8a be 56 d1 7d 3e fc 78 0d bd 1e 0d 09 3e
       -0.27034545 0.24786887 -0.034539208 0.1338391
0003b0 56 54 f9 3d ee 45 b0 3e bd 8e 9e bf e7 d4 cb bd
       0.12174289 0.34428352 -1.238731 -0.09952717
0003c0 57 f6 ba 3e 89 eb 92 3e c3 20 e9 bd d3 38 4b 3f
       0.36516067 0.28695324 -0.11383202 0.7938358
0003d0 68 27 57 3f ed 28 2d 3f 68 cf b4 3e 90 e0 78 bf
       0.84044504 0.6764057 0.35314488 -0.97217655
0003e0 93 98 88 3d 71 82 6d be 56 cc 28 3f 93 00 76 bd
       0.06669726 -0.2319429 0.6593679 -0.06005914
0003f0 19 e3 58 3f b2 8e 9b be 5c cf 76 3e 84 fc 64 bf
       0.84721524 -0.30382305 0.24102539 -0.8944781

fc2.bias f4 [64]
000000 81 28 42 3d 02 ca 65 3d f3 84 80 3e 08 71 a7 3d
       0.04740191 0.056100853 0.25101432 0.08175856
000010 4d ec 08 3d b9 18 a5 3e a9 63 0b 3e 0a 9e 9e 3e
       0.03342848 0.32245424 0.13612236 0.3097995
000020 b5 fa 27 3d 08 97 e9 bc 4f e0 4a be 0b 1c e6 3d
       0.041010577 -0.0285144 -0.1981213 0.112358175
000030 a3 6a e4 3d c0 37 aa 3e 7b fa be 3d a5 58 51 3e
       0.11153152 0.3324566 0.09325119 0.20443971
000040 a5 e4 54 3e 66 71 90 bc a6 f9 85 be 3a 17 e5 bd
       0.20790346 -0.017632198 -0.2616703 -0.11186071
000050 cb a7 8e 3c 8f 04 cd 3c cb af 81 3e 70 e8 95 3e
       0.017413994 0.025026588 0.25329432 0.29278898
000060 e4 d1 86 3d 4a ae 0f 3e 1a c5 2d bd 50 5d b7 3c
       0.06583002 0.1403133 -0.0424243 0.022383362
000070 4a 9b 00 3f 5f 8e 80 3e 66 c3 84 3e 74 9e 7f bc
       0.5023695 0.2510862 0.25930327 -0.015601743
000080 44 73 76 3e 7a 45 78 3e 39 46 02 3f 18 4d b2 3d
       0.24067408 0.24245253 0.508884 0.08706111
000090 25 54 c7 be d5 63 4c 3d 9b ae 6c 3d 6c f6 15 3c
       -0.38931385 0.049899895 0.057783704 0.00915299
0000a0 2d bf 64 3e d9 31 19 3b b6 12 fb bd 92 7d ef 3c
       0.22338553 0.0023375659 -0.12259428 0.029234681
0000b0 ae 9d ee 3e ca 8a d4 be da 90 77 bd 53 60 b2 3e
       0.46604675 -0.41512138 -0.060440876 0.34839115
0000c0 44 34 7f 3e 1d 72 8c 3e 5e 11 2e be 84 5f 93 bd
       0.24922282 0.27430812 -0.16998813 -0.071959525
0000d0 d0 f0 09 3e e2 42 00 3e 57 b5 ca bd dc 6c 19 3e
       0.13470769 0.12525514 -0.09897869 0.14982933
0000e0 10 53 d1 ba 42 72 f5 bd 0f 06 05 3e 3b b0 b3 3d
       -0.0015970189 -0.119846836 0.12990592 0.08773848
0000f0 20 2a 32 bc 40 c5 27 3e 03 d7 1c be 0d 0d 8c 3e
       -0.010874301 0.16383839 -0.15316395 0.27353707

fc3.weight f4 [4, 64]
000000 9c 11 a6 3d bf 40 75 bf 12 c2 c3 3f 07 24 73 bf
       0.081088275 -0.9580192 1.52936 -0.9497685
000010 4d 2e 8a bf 4a b1 86 3f 37 af b2 3e b3 f5 58 3f
       -1.079538 1.0522854 0.34899303 0.8474991
000020 75 05 d1 bf cc 38 6c bf 56 b2 14 bf 3a 7b 1f bf
       -1.632979 -0.92274165 -0.5808462 -0.62297404
000030 f4 3e a4 be 36 f3 a2 3f d4 d5 f1 be 8a 7a 11 bf
       -0.3207928 1.2730472 -0.4723345 -0.56827605
000040 4e fa 53 3f 55 9f a8 be 20 47 92 3e 6e af 30 bf
       0.8280381 -0.3293406 0.2856989 -0.69017684
000050 70 7a cf be ec 53 0f bf c1 b7 54 3f 57 f2 b9 3f
       -0.405231 -0.5598743 0.83092886 1.4527081
000060 59 69 f9 be 7a 6f 3a bf 3d 31 de be b5 21 f4 be
       -0.48713186 -0.7282635 -0.4339694 -0.47681966
000070 ec ac 36 be 84 17 40 3e d6 18 50 3f 22 5b 6c bf
       -0.17839402 0.1875897 0.81287897 -0.9232656
000080 c6 dc a5 be db 19 a1 3f 9b 64 08 bf d1 33 06 bf
       -0.32395 1.2586015 -0.5327851 -0.52422816
000090 47 22 4d bf fb b8 08 bf f8 4d 79 be 0e fb 1e 40
       -0.8013043 -0.5340726 -0.24346149 2.4840732
0000a0 39 96 94 3f 12 10 a0 be c0 60 89 bd e0 35 20 bf
       1.1608344 -0.3126226 -0.06707907 -0.62582207
0000b0 c7 6d 02 40 67 f6 c1 bd 0e 89 75 bf 62 8b b0 3f
       2.0379503 -0.09470826 -0.95912254 1.3792536
0000c0 cd 1f 5b bf 25 90 9c be af 94 bf be 1a 38 89 bc
       -0.855954 -0.30578724 -0.37418124 -0.016750384
0000d0 ae 08 c0 be fe b9 3a bf 60 5d 43 bf 9d 32 86 3e
       -0.37506622 -0.7294005 -0.76314354 0.2621049
0000e0 06 3f 9b be a5 68 0a bf 63 5c bd 3e a5 6a b7 3b
       -0.3032152 -0.54065925 0.36984548 0.00559743
0000f0 14 b7 17 bd 6a 45 76 bf 03 3a e9 bd 7e c1 91 3f
       -0.03703983 -0.9619967 -0.11388018 1.1387174
000100 e7 b9 9e bd fa ad 01 bf 74 ce c2 3f 5f 7f 55 bf
       -0.07750302 -0.5065609 1.5219254 -0.8339748
000110 5e 68 8e bf 1e 7f a0 3f 75 c1 5e 3f 71 09 77 3f
       -1.11256 1.2538793 0.8701394 0.9649878
000120 d3 d5 27 be 6b b5 a6 be f1 fc e0 be 61 b7 ce be
       -0.16390161 -0.32560286 -0.4394298 -0.40374282
000130 83 4f c9 be 4e 9a 89 3f eb bc f1 be 3c 32 47 bf
       -0.39318475 1.0750215 -0.47214445 -0.77811027
000140 d3 c8 75 3f 07 32 eb be 1c a4 ac be 9a a4 de be
       0.9600956 -0.45936605 -0.33718956 -0.43484956
000150 e0 fa 04 bf 02 f3 4b bf 9f aa 10 3f 0e 18 df 3f
       -0.51945305 -0.79667675 0.5651035 1.7429216
000160 e4 48 19 bf aa d1 47 bf 50 81 f7 be ab 19 00 bf
       -0.5987685 -0.78054297 -0.48340845 -0.50039166
000170 76 37 59 bf 2e 7c ae be d7 4b 80 3f ff 18 86 be
       -0.8485025 -0.34079117 1.0023144 -0.26190946
000180 f8 47 a7 be 6c 5a 95 3f bf 2c 09 3e 3a 12 de be
       -0.32672095 1.166822 0.13395976 -0.4337328
000190 40 b8 9d 3d 2d 04 83 be 61 a4 1a bf 7d de 1e 40
       0.077011585 -0.25589123 -0.6040707 2.4823296
0001a0 3c d9 91 3f ab 70 ea be 62 ce f4 3d ae 5c 72 bf
       1.139442 -0.45789084 0.11953427 -0.9467267
0001b0 78 02 0a 40 27 db a7 be e0 af 8f bf f1 e2 b4 3f
       2.1564007 -0.32784387 -1.1225548 1.4131757
0001c0 d9 23 5d bf f4 84 10 bf 90 72 db be 1f 61 b2 3d
       -0.86382824 -0.5645287 -0.42860842 0.08709931
0001d0 f2 88 b3 be ed 76 ca be 51 da f3 be 89 8c c3 3e
       -0.35065418 -0.39543858 -0.476275 0.38193157
0001e0 50 59 ed be 1e 5f 0b bf 80 ec 6e bd be f7 26 3d
       -0.46357203 -0.5444201 -0.058331013 0.04076361
0001f0 8c 1f 1a bd 8f 1b 52 bf 35 a2 34 3d 76 fd 89 3f
       -0.03762774 -0.820733 0.044100005 1.0780475
000200 a0 b8 aa 3d bc 6c ed be f2 80 a9 3f 99 96 4e bf
       0.08335996 -0.4637202 1.3242476 -0.80698544
000210 ba c2 47 bf da 88 fa 3f e3 65 4d 3f 95 9c bc 3f
       -0.78031504 1.9573014 0.8023359 1.4735285
000220 8a 0a 71 3f 6a 82 2c bf c2 9e 02 bf a0 11 11 bf
       0.94156706 -0.67386496 -0.51023495 -0.5666752
000230 a1 14 20 be 56 59 9b 3f 7b 65 23 bf ab e9 2d bf
       -0.1563287 1.2136638 -0.6382672 -0.67934674
000240 82 8d 09 3f f2 ec ef be 93 44 60 bf 9c c3 36 bf
       0.5373155 -0.46860462 -0.87604636 -0.71392226
000250 49 9b ff be 67 03 20 bf bf 62 94 bc 1f c6 7d 3f
       -0.4992316 -0.6250519 -0.018113492 0.99130434
000260 0e 97 b5 be f4 25 6e bf 7c cd e5 be c1 b4 ad be
       -0.35466808 -0.9302666 -0.44883335 -0.33926967
000270 3a 35 55 bf bc c3 75 3e ee 61 c4 3f f1 3d e3 be
       -0.8328434 0.24000448 1.5342386 -0.44383195
000280 99 6d 6f 3e b5 41 cc 3f 59 2b 77 bf 2e 1d 08 bf
       0.23381652 1.5957552 -0.9655052 -0.53169525
000290 e9 7b 3f be 7c 44 3d bf 85 93 e2 be f5 29 99 3f
       -0.18699612 -0.73932624 -0.44253173 1.1965929
0002a0 9d e4 61 3f dc 28 ce be e4 4b ce 3d ca a5 34 bf
       0.8823946 -0.40265548 0.10073069 -0.70565474
0002b0 ff a2 11 3f 89 6a 31 bf b6 f6 4a bd 4f 87 97 3f
       0.5688934 -0.69303185 -0.049551688 1.1838168
0002c0 f7 a8 e5 3d 92 bc be be 0f 8d 0a bf a9 05 c0 bd
       0.11213868 -0.37253243 -0.5412149 -0.093760796
0002d0 6c 3d 1d bf 2b 4c 38 bf 00 6f 2f 3e 89 9d 91 bf
       -0.6142185 -0.71991223 0.17132187 -1.1376201
0002e0 5e 76 e5 be dc c2 44 bf a8 0f cc be 76 b9 c3 3d
       -0.4481687 -0.7685983 -0.39855695 0.09556858
0002f0 8f a4 2e 3c ba e9 45 bf 92 cd 25 3d f0 c6 de 3f
       0.010659351 -0.77309763 0.04047925 1.7404461
000300 7b 5a b5 3d 25 4f 86 bf 93 91 a9 3f b8 d2 64 bf
       0.088551484 -1.0492903 1.3247551 -0.8938403
000310 56 08 20 bf fc 29 4a 3f de 79 2e 3e 6d 0d 61 3f
       -0.6251272 0.78970313 0.17038676 0.8791111
000320 9c 3b 4d bf 8f d9 97 be 74 a8 ec be 3b 05 4b bf
       -0.8016908 -0.29658172 -0.4622227 -0.79304856
000330 76 e4 b2 be 39 55 aa 3f 60 f0 9e be 0f a1 e2 be
       -0.34939927 1.3307258 -0.31042767 -0.44263503
000340 d8 27 51 3f ab 21 b5 be c5 d6 8a bd 7f c2 cb be
       0.8170142 -0.3537725 -0.06779245 -0.39796826
000350 cf 9e 8f be 3a 3f 12 bf c8 4e 82 3f f2 34 9b 3f
       -0.2805085 -0.57127726 1.0180292 1.2125533
000360 4f 1d d8 be a2 9d 01 bf b6 9c c7 be 1f b3 d1 be
       -0.4220986 -0.50631154 -0.38986748 -0.4095697
000370 6a 92 0d be 4e de 66 3f f4 1a 67 3f 3d 77 58 bf
       -0.13825384 0.9018296 0.902755 -0.84556943
000380 77 de a2 be e7 37 a3 3f b1 05 9a bf e7 b2 8b be
       -0.31810352 1.2751435 -1.2032987 -0.2728493
000390 d9 6e 45 bf 63 8d 5b bf f6 b0 c5 be da 9d 1b 40
       -0.77122265 -0.85762614 -0.38611573 2.4315095
0003a0 81 7b 82 3f 05 6c a7 be a2 05 bc bd 74 3f c1 be
       1.019394 -0.326996 -0.09180762 -0.37743723
0003b0 35 41 03 40 fa 7e 13 bf f0 88 51 bf 7f 4d c8 3f
       2.050855 -0.57615626 -0.81849575 1.564865
0003c0 c5 e4 10 bf 74 61 e1 be 82 00 16 bf 3b 78 80 3d
       -0.56599075 -0.44019663 -0.58594525 0.06272932
0003d0 1c 99 50 bf 01 2a 50 bf 10 41 56 bf a6 7e 33 bf
       -0.81483626 -0.8131409 -0.8369303 -0.70115125
0003e0 e6 b7 ee be ba 23 df be dc 47 36 3f 79 a6 c3 bd
       -0.46624678 -0.43581945 0.712034 -0.095532365
0003f0 16 7e e5 3d 91 a5 3d bf 7d 78 bf bd da 04 9c 3f
       0.112056896 -0.7408076 -0.09349153 1.218898

fc3.bias f4 [4]
000000 fe e7 8e 3e ad 4e 00 be 54 c8 f3 3d ec 16 3a 3e
       0.2791137 -0.12530012 0.11903444 0.18172807
